matrix_multiplication_model.pth (torch, 15238 bytes, 24 tensors)

conv1.weight f4 [8, 2, 1, 1]
0	0x3f1cdf9f	0.6127872
1	0xbe5595ba	-0.20857897
2	0x3f97324f	1.1812228
3	0xbc074afb	-0.008257623
4	0x3e0ddb28	0.13853133
5	0xbf43bb29	-0.7645746
6	0x3d9dff0e	0.077146634
7	0x3fabaf0e	1.3412797
8	0x3f2930be	0.6609
9	0xbd7067f8	-0.058692902
10	0x3e0cda06	0.13755044
11	0x3d8177c6	0.06321673
12	0xbe510040	-0.20410252
13	0xbf149835	-0.5804475
14	0xbf342db9	-0.7038227
15	0xbee62a67	-0.44954225

conv1.bias f4 [8]
0	0xbe3d2cdc	-0.18474144
1	0xbf67abad	-0.9049633
2	0x3ea89549	0.32926396
3	0xbfbf6424	-1.4952435
4	0xbf99c1ab	-1.2012228
5	0xbea78cf9	-0.3272474
6	0x3ea77412	0.32705742
7	0xbf19a166	-0.600119

conv2.weight f4 [4, 8, 1, 1]
0	0xbea7b2d7	-0.3275363
1	0x3dae6276	0.08514874
2	0x3e91321e	0.2835855
3	0x3fb81661	1.438183
4	0x3edcbb04	0.43111432
5	0x3c66fd49	0.014098474
6	0xbea48fd6	-0.32140988
7	0x3e55ef6e	0.20892116
8	0x3f522a9a	0.82096255
9	0x3f2817cc	0.6566131
10	0xbd038e92	-0.032118388
11	0x3e78d6cc	0.24300689
12	0xbf5820c3	-0.8442499
13	0x3ec26fee	0.3797602
14	0x3e26159a	0.16219178
15	0x3e457e9f	0.19286583
16	0xbf1559af	-0.5833997
17	0xbda83906	-0.08214001
18	0x3d4bbe50	0.049742043
19	0x3f958fba	1.1684487
20	0x3f105cb2	0.5639144
21	0xbf0cf4f3	-0.5506126
22	0xbe6b1ef0	-0.2296102
23	0xbdbbfa7c	-0.091786355
24	0xbe425dc7	-0.18981086
25	0x3f74192a	0.953509
26	0xbd5c0f57	-0.053725567
27	0xbdcd8f81	-0.10037137
28	0x3f1743f9	0.59088093
29	0x3b5ef62c	0.0034021242
30	0xbe1a4455	-0.15065129
31	0x3e9dc852	0.30816895

conv2.bias f4 [4]
0	0xbffeb593	-1.9899162
1	0xbefdaede	-0.49547476
2	0x3eecd7c7	0.46258375
3	0xbc1ba9db	-0.009500946

fc1.weight f4 [16, 16]
0	0x3efd260a	0.49443084
1	0xbcb553cc	-0.022134684
2	0x3ec3150e	0.38102
3	0x3ca92478	0.020647272
4	0xbf13ea58	-0.57779455
5	0xbde99f94	-0.1140739
6	0x3e0760bd	0.13220496
7	0x3db3a5c1	0.087718494
8	0xbde5f6b7	-0.11228698
9	0x3c67853c	0.014130887
10	0xbc69ee7a	-0.014278049
11	0xbac26d1f	-0.0014833546
12	0xbe2564d3	-0.16151743
13	0xbefe897d	-0.4971427
14	0x3f949ed1	1.1610967
15	0x3fa8d7e1	1.3190881
16	0xbe266170	-0.16248107
17	0x3e3d6274	0.18494588
18	0x3ba0f3c0	0.0049118698
19	0xbe41f2c8	-0.1894027
20	0xbd06f440	-0.03294778
21	0x3d88e120	0.06683564
22	0x3d1a4f78	0.037673444
23	0xbe0e0d24	-0.138722
24	0xbd2ded50	-0.042462647
25	0xbe3be44a	-0.18348804
26	0xbe4892a4	-0.19587189
27	0xbde1f000	-0.110321045
28	0xbdd2e8c8	-0.10298306
29	0x3c98b8b0	0.018642753
30	0xbe709c98	-0.23497236
31	0xbe1514b8	-0.14558685
32	0x3dd6eac8	0.10494
33	0xbd604bc2	-0.05475975
34	0x3d7f969a	0.062399484
35	0x40107af4	2.2575045
36	0xbe9a82e1	-0.30177978
37	0xbe433094	-0.190615
38	0xbdccad1e	-0.09993957
39	0xbd9d54aa	-0.07682164
40	0xbca7ab7a	-0.020467509
41	0xbc13c5c8	-0.009019323
42	0xbd03bcc3	-0.03216244
43	0x3fbb9019	1.465335
44	0x3e840362	0.2578383
45	0x3e1840d1	0.14868475
46	0x3df2f42c	0.11862978
47	0xbf2b54ae	-0.66926086
48	0x3cc2de22	0.023787562
49	0x3ec40d68	0.38291478
50	0xbe7b055e	-0.24513766
51	0xbac4b869	-0.0015008572
52	0xbf8262c7	-1.0186394
53	0x3f7bd2dd	0.98368627
54	0x3ee4aff5	0.44665495
55	0x3e973a2e	0.29536575
56	0x3c5c6cb3	0.01345365
57	0x3f9594a6	1.1685989
58	0x3e009118	0.12555349
59	0xbe055edf	-0.13024472
60	0xbfac5720	-1.3464088
61	0xbf369f6b	-0.71337
62	0xbea0d256	-0.31410474
63	0xbe967271	-0.29384187
64	0xbe5d22ac	-0.21595258
65	0xbe10b99e	-0.14133307
66	0x3e11ab6a	0.14225546
67	0x3db433be	0.087989315
68	0x3e1669b9	0.14688767
69	0xbd489698	-0.048971742
70	0xbe8d9bb6	-0.2765786
71	0xbeaf84f4	-0.34281123
72	0xbdd8d814	-0.10588089
73	0xbad9563b	-0.0016581485
74	0xbdb234af	-0.08701455
75	0xbdf60d67	-0.12014275
76	0xbe954add	-0.2915868
77	0x3d4f704b	0.0506442
78	0x3da7eb58	0.08199185
79	0xbd5344e2	-0.051579364
80	0x3c244e5d	0.010028449
81	0x3d1e5f44	0.03866507
82	0xbe843196	-0.2581908
83	0xbc31444a	-0.010819504
84	0xbe83c83f	-0.25738713
85	0x3d80213b	0.06256338
86	0x3d5c4ace	0.053782277
87	0xbe2abd2b	-0.16673724
88	0xbe750eed	-0.23931475
89	0x3d584cc9	0.052807603
90	0xbe4f98f1	-0.20273186
91	0xbe5b0c92	-0.21391514
92	0xbe7cdbd2	-0.2469323
93	0x3cdef491	0.027216228
94	0xbea3eea8	-0.32018018
95	0xbdfae31c	-0.12250349
96	0xbe781b3a	-0.24229136
97	0xbd3ae7de	-0.045631282
98	0xbe86b48b	-0.26309618
99	0xbe91a34e	-0.28444904
100	0xbea22ab4	-0.31673205
101	0xbe940c1a	-0.28915483
102	0xbef1f31d	-0.47255793
103	0x3e12e51c	0.14345211
104	0xbf149d90	-0.5805292
105	0xbd8952d3	-0.067052506
106	0xbe90a8f1	-0.28253892
107	0xbed322de	-0.4123754
108	0xbe9bc7d9	-0.3042591
109	0xbead8e0f	-0.33897445
110	0x3d43f6a6	0.047842644
111	0xbed2d708	-0.4117968
112	0xbdb1a7ec	-0.08674607
113	0xbd418bae	-0.04725235
114	0x3f04d7dd	0.5189188
115	0x3c244a8c	0.010027539
116	0x3edc8457	0.43069717
117	0x3d2e5951	0.042565648
118	0xbf38503f	-0.71997446
119	0xbe8c21da	-0.27369577
120	0x3aa31a99	0.001244384
121	0x3cbaee11	0.022818597
122	0xbfbcec86	-1.4759681
123	0x3e28e49b	0.16493456
124	0xbebadab1	-0.36494973
125	0xbde1d573	-0.1102704
126	0x3ea31feb	0.3186029
127	0x3ff188a6	1.8869827
128	0x3e8e311d	0.27771845
129	0xbd41028c	-0.04712157
130	0xbd64114e	-0.055680566
131	0x3c9e6a78	0.019337878
132	0x3ea69d27	0.32541773
133	0x3d57e313	0.05270679
134	0xbd830326	-0.06397085
135	0xbdb6f10d	-0.089326955
136	0x3f859ca0	1.0438423
137	0x3d408303	0.046999943
138	0x3d74f8b1	0.059807483
139	0xbc2240ca	-0.009903142
140	0x3f9ebd77	1.240157
141	0xbd4731a1	-0.048631314
142	0xbc8eeab6	-0.017445903
143	0x3dba687f	0.09101962
144	0xbe0d0aec	-0.13773698
145	0xbd7cbd12	-0.06170375
146	0xbd9ba513	-0.07599845
147	0x401394d8	2.3059597
148	0x3ee5117f	0.4473991
149	0xbf2463b3	-0.6421463
150	0xbe537263	-0.20649104
151	0x3f0a288c	0.5396812
152	0x3d50b329	0.05095211
153	0x3ddd20dc	0.10797283
154	0x3d9a3ac8	0.07530743
155	0x3f76b260	0.9636593
156	0xbec6a59e	-0.3879823
157	0xbf1e5831	-0.6185332
158	0x3e2ce264	0.16883236
159	0xbe121301	-0.14265062
160	0xbe87c557	-0.26517746
161	0xbe6114d7	-0.21980606
162	0xbed2d44f	-0.41177604
163	0xbed13ca1	-0.4086657
164	0x3d81604e	0.06317197
165	0xbf0f34c6	-0.559399
166	0xbf181625	-0.5940879
167	0xbe4b1d83	-0.19835477
168	0xbeea3ab9	-0.45747927
169	0xbeb90b90	-0.36141634
170	0xbe152437	-0.14564596
171	0xbe81567c	-0.25261295
172	0xbf039dc9	-0.51412636
173	0xbe8e12dc	-0.27748764
174	0x3de0bef9	0.10973925
175	0xbec9e85a	-0.39435083
176	0x3e902273	0.28151283
177	0xbe043059	-0.12909068
178	0x3e5695aa	0.2095553
179	0xbdd3d776	-0.1034383
180	0xbf6d821a	-0.92776644
181	0x3ec1982c	0.3781141
182	0xbe31c230	-0.17359233
183	0x3e3dee04	0.18547827
184	0xbda99724	-0.08280781
185	0x3fc177eb	1.5114721
186	0xbe8259d4	-0.25459158
187	0x3e13544a	0.14387622
188	0x3f4740b4	0.77833104
189	0x3c6e5ebe	0.0145489555
190	0xbfd6346b	-1.6734747
191	0xbe1011bb	-0.14069264
192	0x3e3c97c1	0.18417265
193	0x3e3f0545	0.18654354
194	0x3d6181d0	0.05505544
195	0x4049716c	3.1475477
196	0xbf613260	-0.8796749
197	0x3ed52f48	0.41637635
198	0xbe6319c8	-0.22177804
199	0x3f4a9f2a	0.79149115
200	0xbe61d853	-0.22055177
201	0x3fa66613	1.29999
202	0xbe3a2017	-0.18176304
203	0x3f86141c	1.0474887
204	0x3f3ffff7	0.74999946
205	0xbd01b699	-0.03166828
206	0x3e5f7e3a	0.21825495
207	0xbedd5a14	-0.43232787
208	0x3efc909e	0.49329084
209	0xbd10114a	-0.035172738
210	0x3d839cd1	0.06426395
211	0x3daa625f	0.08319544
212	0xbf15cec4	-0.58518624
213	0x3cb58f67	0.022163106
214	0x3d1b07c4	0.037849203
215	0x3d879e50	0.066219926
216	0xbfd3eba4	-1.6556287
217	0x3cfcdec0	0.030867934
218	0x3dcd38a3	0.10020568
219	0xbde07789	-0.109602995
220	0x3e3c6aa1	0.1840005
221	0xbda566a0	-0.08076215
222	0x3fe955d3	1.8229316
223	0xbd6068b1	-0.05478734
224	0xbe0b8213	-0.13623838
225	0xbd5a2f0a	-0.053267516
226	0xbeb9833d	-0.3623294
227	0x3d88b06f	0.06674277
228	0x3e33b402	0.17549136
229	0x3fb1977a	1.3874352
230	0x3ed15116	0.40882176
231	0xbc268d6b	-0.010165553
232	0x3d3c0317	0.045901384
233	0xbe1312ad	-0.14362593
234	0x3f9ec83e	1.2404859
235	0xbcf0668b	-0.029345771
236	0xbe0c6905	-0.13711937
237	0xbd94ac5b	-0.07259437
238	0xbd359f15	-0.044341166
239	0xbd81aa6b	-0.06331333
240	0xbe535261	-0.20636894
241	0x3d5f0c70	0.05445522
242	0xbc5143a0	-0.012772471
243	0x3f9b005e	1.2109487
244	0x3fb20ea7	1.3910722
245	0x3eb7c8fd	0.3589553
246	0x3ed90b47	0.42391416
247	0x3ec5c26d	0.38624898
248	0x3f2b128b	0.6682517
249	0x3efcfa28	0.49409604
250	0x3f11afc2	0.5690881
251	0x3f002bdf	0.5006694
252	0xbe38a49a	-0.1803154
253	0x3ef8dd05	0.48606125
254	0x3f5f92c0	0.873333
255	0x3f61e1b3	0.88235015

fc1.bias f4 [16]
0	0x4000eaef	2.0143392
1	0x3dfea1e0	0.12433219
2	0xbffc792e	-1.9724481
3	0xbd9906c7	-0.07471996
4	0xbd44a7a6	-0.048011445
5	0xbdd9705b	-0.10617133
6	0xbe8ca59d	-0.27470103
7	0x3d95f171	0.07321442
8	0xc082e14c	-4.090002
9	0xbf5d4c2a	-0.8644434
10	0xbeb57762	-0.35442644
11	0x3c9f2882	0.019428495
12	0x3e81b8d5	0.25336328
13	0x3db9ac51	0.0906607
14	0xc04aa92b	-3.1665752
15	0x3eb2968e	0.3488049

fc2.weight f4 [4, 16]
0	0xbf12b4d9	-0.573072
1	0x3d9c62f0	0.07636058
2	0xbc9ff9f6	-0.01952837
3	0x3d0920e9	0.03347865
4	0x3c0646a0	0.008195549
5	0x3d6016aa	0.054709114
6	0xbb6ade15	-0.0035837938
7	0xbd322778	-0.04349467
8	0x3f94a4a5	1.1612746
9	0x3cac1f50	0.021011025
10	0x3e91ba15	0.28462282
11	0x3c9b7906	0.018978607
12	0xbea3be9d	-0.31981364
13	0xbdaf4cc8	-0.08559567
14	0x3fb38caa	1.4027302
15	0x3f481f3a	0.7817265
16	0xbf0a5820	-0.5404072
17	0x3db646f0	0.08900249
18	0xbe1e91e9	-0.15485348
19	0xbf4a751f	-0.7908496
20	0xbc44be7b	-0.012008305
21	0xbdce3d19	-0.10070247
22	0xbd443bc4	-0.04790856
23	0x3d3f250c	0.04666619
24	0x3da3b416	0.07993333
25	0xbfab4f50	-1.3383579
26	0xbd020381	-0.031741623
27	0x3bfb8b6f	0.007676534
28	0x3f8c1f26	1.0947006
29	0x3b5ead9d	0.0033977993
30	0x3cfbcb85	0.030736694
31	0x3f0a4866	0.5401672
32	0x3f8c62e7	1.0967683
33	0x3e069a7c	0.13144869
34	0xbcc991fe	-0.024605747
35	0x39d8c3a0	0.00041344482
36	0x3e38cfad	0.18047972
37	0xbd310896	-0.04322108
38	0x3e4ecb63	0.20194773
39	0xbf75bf00	-0.9599457
40	0xbd39fd09	-0.04540733
41	0x3c31c05c	0.010849085
42	0xbd8e67ef	-0.069534175
43	0xbcaee68d	-0.02135017
44	0xbe936c57	-0.28793594
45	0xbf557734	-0.83385015
46	0x3db9530b	0.09049042
47	0x3f4b51cf	0.79421705
48	0x3ecaae63	0.39586172
49	0xbe1772be	-0.14789864
50	0xbfbcf992	-1.4763663
51	0x3cd70006	0.026245128
52	0xbd04ec08	-0.03245166
53	0x3dc16697	0.094433956
54	0xbe351121	-0.17682315
55	0xbc451cf0	-0.012030825
56	0xbca1969e	-0.01972514
57	0x3da5242a	0.08063538
58	0xbe27a2dc	-0.1637072
59	0xbf642d89	-0.8913198
60	0x3f9d6403	1.2296146
61	0xbd498f15	-0.04920872
62	0xbb6795f1	-0.0035337175
63	0x3e82974b	0.25506052

fc2.bias f4 [4]
0	0x401c2471	2.4397242
1	0x3fa41685	1.2819372
2	0xbfa699e2	-1.3015711
3	0xbe30a394	-0.172499

exp_avg f4 [8, 2, 1, 1]
0	0x38dc5bed	0.0001050754
1	0xb98f6ac0	-0.0002735462
2	0x3be4a5af	0.006977759
3	0x3bdb80c8	0.0066987015
4	0x00000004	6e-45
5	0x00000004	6e-45
6	0x3be2c201	0.0069200997
7	0x3be06706	0.006848219
8	0x3a7035c9	0.0009163288
9	0x3a6d5448	0.00090533914
10	0x38adad46	8.2815575e-05
11	0xb88bfad7	-6.674759e-05
12	0x00000000	0.0
13	0x00000000	0.0
14	0x00000000	0.0
15	0x00000000	0.0

exp_avg_sq f4 [8, 2, 1, 1]
0	0x3b433326	0.0029785126
1	0x3a4339b3	0.00074472575
2	0x3e2043f8	0.15650928
3	0x3e169881	0.14706613
4	0x000001f4	7e-43
5	0x000001f4	7e-43
6	0x3e1086c3	0.14113908
7	0x3e2219ac	0.15830106
8	0x3aa08d0b	0.0012249065
9	0x3a760c3c	0.00093859783
10	0x38c5dae5	9.434464e-05
11	0x38b0c81c	8.429607e-05
12	0x00000000	0.0
13	0x00000000	0.0
14	0x00000000	0.0
15	0x00000000	0.0

exp_avg f4 [8]
0	0xb92ed333	-0.00016672611
1	0x3b4a70b9	0.0030889942
2	0x00000004	6e-45
3	0x3b3af3cf	0.002852667
4	0x39a0ce6b	0.00030671371
5	0x388bbca7	6.663176e-05
6	0x00000000	0.0
7	0x00000000	0.0

exp_avg_sq f4 [8]
0	0x39748b3c	0.00023321522
1	0x3d01c0f5	0.03167816
2	0x000001f4	7e-43
3	0x3cda9aef	0.026685206
4	0x393a31f8	0.00017756957
5	0x37960c24	1.7887047e-05
6	0x00000000	0.0
7	0x00000000	0.0

exp_avg f4 [4, 8, 1, 1]
0	0x3a291b7d	0.00064509345
1	0x3abfea29	0.0014641929
2	0x00000004	6e-45
3	0x3aa22f85	0.0012373781
4	0x39a523f8	0.0003149805
5	0x38faf996	0.00011967418
6	0x00000000	0.0
7	0x00000000	0.0
8	0x3abea197	0.0014544007
9	0x3b65cf12	0.003506605
10	0x00000004	6e-45
11	0x3b4a4251	0.0030862282
12	0x3a178a18	0.00057807704
13	0x39935793	0.00028103273
14	0x00000000	0.0
15	0x00000000	0.0
16	0x3a7d1715	0.00096546236
17	0x3b279713	0.0025572225
18	0x00000004	6e-45
19	0x3b361af3	0.002778706
20	0x39eaa626	0.00044755748
21	0x396c968f	0.00022562801
22	0x00000000	0.0
23	0x00000000	0.0
24	0x3aba0ca2	0.0014194439
25	0x3b5a7074	0.0033331187
26	0x80000004	-6e-45
27	0x3b504eb1	0.0031785185
28	0x39fc99b9	0.00048179718
29	0x39882919	0.00025970562
30	0x00000000	0.0
31	0x00000000	0.0

exp_avg_sq f4 [4, 8, 1, 1]
0	0x3a319e29	0.0006775582
1	0x3b6d8dbd	0.0036247813
2	0x000001f4	7e-43
3	0x3b594121	0.0033150392
4	0x3933e465	0.00017155854
5	0x37de8954	2.652841e-05
6	0x00000000	0.0
7	0x00000000	0.0
8	0x3c2aeb52	0.010432081
9	0x3d593eec	0.053038523
10	0x000001f4	7e-43
11	0x3d3694f0	0.04457563
12	0x3ac477fc	0.0014989371
13	0x398e9515	0.00027195425
14	0x00000000	0.0
15	0x00000000	0.0
16	0x3b87d419	0.004145157
17	0x3cc3f6af	0.023921339
18	0x000001f4	7e-43
19	0x3d0388ab	0.03211276
20	0x3a1c72a0	0.0005968008
21	0x3919c9f4	0.0001466645
22	0x00000000	0.0
23	0x00000000	0.0
24	0x3bb1393b	0.0054084337
25	0x3cec6623	0.028857296
26	0x000001f4	7e-43
27	0x3ccff2a9	0.025384264
28	0x3a28f8ed	0.0006445784
29	0x3921839d	0.00015403186
30	0x00000000	0.0
31	0x00000000	0.0

exp_avg f4 [4]
0	0x3a35a819	0.00069296506
1	0x3ae37a95	0.0017355258
2	0x3ad5eec5	0.0016321769
3	0x3b0ae2c8	0.00211923

exp_avg_sq f4 [4]
0	0x3a5274c1	0.0008028262
1	0x3c8182fc	0.015809529
2	0x3c336a5c	0.010950651
3	0x3c3e3b0d	0.0116107585

exp_avg f4 [16, 16]
0	0x3917d116	0.00014478373
1	0x3937a36f	0.00017513124
2	0x394d2966	0.00019565746
3	0x39338489	0.00017120143
4	0x39938d64	0.0002814337
5	0x3994fcb5	0.0002841704
6	0x39bdc28f	0.00036193847
7	0x39b11717	0.00033777274
8	0x39c29f11	0.00037121077
9	0x39d8276d	0.00041228105
10	0x39e219a5	0.00043125186
11	0x39d5520b	0.00040687653
12	0x3994610d	0.00028301068
13	0x39999834	0.00029295834
14	0x39c0605d	0.0003669289
15	0x39a305c7	0.00031094087
16	0x00000000	0.0
17	0x00000000	0.0
18	0x00000000	0.0
19	0x00000000	0.0
20	0x00000000	0.0
21	0x00000000	0.0
22	0x00000000	0.0
23	0x00000000	0.0
24	0x00000000	0.0
25	0x00000000	0.0
26	0x00000000	0.0
27	0x00000000	0.0
28	0x00000000	0.0
29	0x00000000	0.0
30	0x00000000	0.0
31	0x00000000	0.0
32	0xb98a72ef	-0.00026407043
33	0xb9842f8a	-0.0002521242
34	0xb985cbe9	-0.00025519662
35	0xba107580	-0.0005510673
36	0xb9cf2cab	-0.00039515397
37	0xb9c91daa	-0.0003835981
38	0xb9e83d0b	-0.0004429597
39	0xb9d21d75	-0.00040076268
40	0xba1c55ac	-0.0005963694
41	0xba1c7f6d	-0.00059699157
42	0xba0f73d5	-0.00054722774
43	0xba797b10	-0.0009516934
44	0xb9d33c25	-0.00040289867
45	0xb9cfa58f	-0.00039605467
46	0xb9f74b83	-0.00047167772
47	0xb9ae041f	-0.00033190937
48	0xb874b2b0	-5.834055e-05
49	0xb8c61edd	-9.4471245e-05
50	0xb88ab80e	-6.614636e-05
51	0xb89cc3e2	-7.475146e-05
52	0xb844d11b	-4.6924786e-05
53	0xb8f81a88	-0.00011830503
54	0xb8e626da	-0.00010974491
55	0xb8dd72d3	-0.00010559489
56	0xb91d5701	-0.00015005098
57	0xb96db6bd	-0.00022670157
58	0xb9224be2	-0.00015477792
59	0xb9317b21	-0.00016925904
60	0xb8232b3f	-3.8902504e-05
61	0xb8e2f38f	-0.00010821886
62	0xb8fd95ae	-0.0001209186
63	0xb8eae3a6	-0.00011200392
64	0x00000004	6e-45
65	0x00000004	6e-45
66	0x00000004	6e-45
67	0x00000004	6e-45
68	0x00000004	6e-45
69	0x00000004	6e-45
70	0x00000004	6e-45
71	0x00000004	6e-45
72	0x00000004	6e-45
73	0x00000004	6e-45
74	0x00000004	6e-45
75	0x00000004	6e-45
76	0x00000004	6e-45
77	0x00000004	6e-45
78	0x00000004	6e-45
79	0x00000004	6e-45
80	0x00000004	6e-45
81	0x00000004	6e-45
82	0x00000004	6e-45
83	0x00000004	6e-45
84	0x00000004	6e-45
85	0x00000004	6e-45
86	0x00000004	6e-45
87	0x00000004	6e-45
88	0x00000004	6e-45
89	0x00000004	6e-45
90	0x00000004	6e-45
91	0x00000004	6e-45
92	0x00000004	6e-45
93	0x00000004	6e-45
94	0x00000004	6e-45
95	0x00000004	6e-45
96	0x00000004	6e-45
97	0x00000004	6e-45
98	0x00000004	6e-45
99	0x00000004	6e-45
100	0x00000004	6e-45
101	0x00000004	6e-45
102	0x00000004	6e-45
103	0x00000004	6e-45
104	0x00000004	6e-45
105	0x00000004	6e-45
106	0x00000004	6e-45
107	0x00000004	6e-45
108	0x00000004	6e-45
109	0x00000004	6e-45
110	0x00000004	6e-45
111	0x00000004	6e-45
112	0xb8ca69d9	-9.651826e-05
113	0xb8db7d51	-0.00010466076
114	0xb824b4dc	-3.9269085e-05
115	0xb8f5989c	-0.00011710936
116	0xb92f16b5	-0.0001669776
117	0xb92125c9	-0.00015368233
118	0xb92d25a1	-0.00016512584
119	0xb960cb18	-0.00021437963
120	0xb97051fc	-0.00022918725
121	0xb981a823	-0.0002473007
122	0xb90daf66	-0.00013512149
123	0xb986bb08	-0.0002569782
124	0xb93c3910	-0.00017950335
125	0xb92714e8	-0.00015934149
126	0xb94e8f21	-0.0001969901
127	0xb981bc5c	-0.00024745136
128	0x393659b6	0.00017390292
129	0x391d9716	0.0001502897
130	0x38b1b1c0	8.473126e-05
131	0x38e07aff	0.00010704062
132	0x3994102d	0.00028240812
133	0x396b4a3e	0.00022439004
134	0x392dc9af	0.00016573699
135	0x39603912	0.00021383565
136	0x39cbef15	0.00038897307
137	0x39a7ec12	0.00032028608
138	0x39863d7f	0.0002560429
139	0x399b9e97	0.00029682062
140	0x398ca0b7	0.00026822623
141	0x396dd1a2	0.00022680176
142	0x39431144	0.00018603081
143	0x3989ccb9	0.00026283207
144	0xb92f911d	-0.0001674336
145	0xb93acd8f	-0.00017814919
146	0xb9335265	-0.00017101465
147	0xb9b46adb	-0.0003441189
148	0xb981353c	-0.0002464446
149	0xb972f79f	-0.00023171165
150	0xb98bea5f	-0.00026686766
151	0xb99c5ed8	-0.00029825303
152	0xb9c2ddb8	-0.00037167757
153	0xb9de202b	-0.00042367107
154	0xb9ba3546	-0.00035516376
155	0xba1bcc7d	-0.0005943252
156	0xb9901e29	-0.0002748829
157	0xb976809a	-0.00023508296
158	0xb997a78d	-0.000289258
159	0xb99aab7e	-0.0002950094
160	0x00000004	6e-45
161	0x00000004	6e-45
162	0x00000004	6e-45
163	0x00000004	6e-45
164	0x00000004	6e-45
165	0x00000004	6e-45
166	0x00000004	6e-45
167	0x00000004	6e-45
168	0x00000004	6e-45
169	0x00000004	6e-45
170	0x00000004	6e-45
171	0x00000004	6e-45
172	0x00000004	6e-45
173	0x00000004	6e-45
174	0x00000004	6e-45
175	0x00000004	6e-45
176	0xb93a8fbe	-0.0001779189
177	0xb98d2eca	-0.00026928476
178	0xb90c4633	-0.00013377592
179	0xb93fc7b4	-0.00018289575
180	0xb98df9b5	-0.00027079662
181	0xb995bd43	-0.00028560506
182	0xb97c8a03	-0.00024084006
183	0xb9a1a45f	-0.0003083078
184	0xb9d26b71	-0.0004013437
185	0xba0ff2dd	-0.00054912065
186	0xb9c53c20	-0.00037619565
187	0xb9ec5bc8	-0.0004508181
188	0xb9961885	-0.00028628498
189	0xb991aac2	-0.0002778378
190	0xb9859fd5	-0.0002548682
191	0xb99c3003	-0.0002979041
192	0x39de414b	0.00042391787
193	0x39fcaf48	0.0004819578
194	0x39dd429e	0.00042202038
195	0x3a0e4269	0.0005426766
196	0x3a3e0c58	0.0007249764
197	0x3a55f73d	0.00081621466
198	0x3a500df0	0.0007936647
199	0x3a618db2	0.0008604183
200	0x3a8c2a99	0.0010693847
201	0x3a98ff07	0.0011672684
202	0x3a8c1959	0.0010688707
203	0x3ab2c72f	0.0013639684
204	0x3a4f8144	0.00079156854
205	0x3a5ccf2a	0.0008423204
206	0x3a624d02	0.0008632691
207	0x3a5a017a	0.000831626
208	0xb6503311	-3.102414e-06
209	0xb8a11c8d	-7.682396e-05
210	0xb8ddbc7f	-0.00010573211
211	0xb8adc938	-8.286763e-05
212	0xb8d11964	-9.970626e-05
213	0xb9134144	-0.00014043326
214	0xb953867d	-0.00020172629
215	0xb911c93d	-0.00013903245
216	0xb8a2928b	-7.752058e-05
217	0xb9560a60	-0.00020412495
218	0xb9485e29	-0.00019108564
219	0xb94903d9	-0.00019170287
220	0xb9052aba	-0.00012699785
221	0xb91e77f5	-0.00015112742
222	0xb97140a3	-0.0002300763
223	0xb916da22	-0.00014386376
224	0x39355ab7	0.00017295299
225	0x39169b8e	0.00014363063
226	0x39506cab	0.00019876908
227	0x3917949c	0.00014455843
228	0x395d1f19	0.00021087787
229	0x39847f09	0.0002527165
230	0x397db489	0.00024195215
231	0x392fe0e4	0.00016773079
232	0x39b6f264	0.0003489434
233	0x39b60572	0.00034717802
234	0x39f18fe5	0.00046074312
235	0x39aa2a4c	0.0003245644
236	0x3981d39b	0.00024762456
237	0x398db569	0.00027028777
238	0x397d947d	0.00024183276
239	0x395f7285	0.00021309599
240	0x3a0978bb	0.00052441255
241	0x3a05a6f6	0.00050984265
242	0x39fa70b0	0.00047767675
243	0x3a08ca7d	0.00052181614
244	0x3a4ed86b	0.0007890525
245	0x3a4f110f	0.0007898965
246	0x3a5aa129	0.0008340055
247	0x3a4cb862	0.00078094576
248	0x3a9e3ad4	0.0012071976
249	0x3a9c1ef3	0.0011911079
250	0x3a9a00f5	0.0011749553
251	0x3aa40455	0.0012513498
252	0x3a632fe4	0.0008666499
253	0x3a56c5ee	0.0008192946
254	0x3a6b00db	0.0008964666
255	0x3a501c38	0.0007938775

exp_avg_sq f4 [16, 16]
0	0x38875428	6.452977e-05
1	0x387ace1c	5.97966e-05
2	0x38887240	6.506266e-05
3	0x389cfd1b	7.485804e-05
4	0x392a4976	0.0001623983
5	0x392ea430	0.00016655098
6	0x396511ab	0.00021845724
7	0x39522f29	0.00020044729
8	0x39bbe4ab	0.0003583779
9	0x39b816f5	0.0003511232
10	0x39b4558d	0.00034396016
11	0x39cbdfa3	0.000388858
12	0x39375da0	0.00017487118
13	0x393ed246	0.00018198145
14	0x39818fa8	0.0002471183
15	0x3966869d	0.00021984657
16	0x00000000	0.0
17	0x00000000	0.0
18	0x00000000	0.0
19	0x00000000	0.0
20	0x00000000	0.0
21	0x00000000	0.0
22	0x00000000	0.0
23	0x00000000	0.0
24	0x00000000	0.0
25	0x00000000	0.0
26	0x00000000	0.0
27	0x00000000	0.0
28	0x00000000	0.0
29	0x00000000	0.0
30	0x00000000	0.0
31	0x00000000	0.0
32	0x391e8d00	0.00015120581
33	0x39211aba	0.00015364113
34	0x39164345	0.00014330175
35	0x3a2adec8	0.00065181823
36	0x39c3ddbf	0.00037358512
37	0x39ba1cbd	0.00035498096
38	0x39fe26d6	0.0004847559
39	0x39d59552	0.00040737778
40	0x3a58fa1c	0.00082770153
41	0x3a5fdc1a	0.00085395726
42	0x3a444fab	0.0007488678
43	0x3b13d21d	0.0022555657
44	0x39cb7fca	0.00038814388
45	0x39bfce76	0.00036584184
46	0x3a09ef94	0.0005261835
47	0x39a673b5	0.00031748196
48	0x3708dd4e	8.157758e-06
49	0x3804126a	3.1488402e-05
50	0x375ae010	1.3045981e-05
51	0x378f7a55	1.7103894e-05
52	0x36bae534	5.5699147e-06
53	0x3820b9bd	3.8319955e-05
54	0x3817a4d4	3.6154714e-05
55	0x3813c6bd	3.523262e-05
56	0x3881b195	6.1842766e-05
57	0x39097510	0.00013108947
58	0x38891226	6.5360495e-05
59	0x38a39ba3	7.801435e-05
60	0x3690ff97	4.321289e-06
61	0x380311ed	3.124953e-05
62	0x3820a6aa	3.830219e-05
63	0x381a29b2	3.6755293e-05
64	0x000001f4	7e-43
65	0x000001f4	7e-43
66	0x000001f4	7e-43
67	0x000001f4	7e-43
68	0x000001f4	7e-43
69	0x000001f4	7e-43
70	0x000001f4	7e-43
71	0x000001f4	7e-43
72	0x000001f4	7e-43
73	0x000001f4	7e-43
74	0x000001f4	7e-43
75	0x000001f4	7e-43
76	0x000001f4	7e-43
77	0x000001f4	7e-43
78	0x000001f4	7e-43
79	0x000001f4	7e-43
80	0x000001f4	7e-43
81	0x000001f4	7e-43
82	0x000001f4	7e-43
83	0x000001f4	7e-43
84	0x000001f4	7e-43
85	0x000001f4	7e-43
86	0x000001f4	7e-43
87	0x000001f4	7e-43
88	0x000001f4	7e-43
89	0x000001f4	7e-43
90	0x000001f4	7e-43
91	0x000001f4	7e-43
92	0x000001f4	7e-43
93	0x000001f4	7e-43
94	0x000001f4	7e-43
95	0x000001f4	7e-43
96	0x000001f4	7e-43
97	0x000001f4	7e-43
98	0x17899030	8.889816e-25
99	0x000001f4	7e-43
100	0x000001f4	7e-43
101	0x17b96008	1.1979586e-24
102	0x15e314df	9.17175e-26
103	0x000001f4	7e-43
104	0x15287c3c	3.4025333e-26
105	0x000001f4	7e-43
106	0x1884135f	3.414076e-24
107	0x15287c3c	3.4025333e-26
108	0x14fcfb81	2.5544698e-26
109	0x182c7e73	2.229432e-24
110	0x000001f4	7e-43
111	0x14fcfb81	2.5544698e-26
112	0x37f27daa	2.8907165e-05
113	0x37def1ca	2.6577054e-05
114	0x36a2a8ca	4.847626e-06
115	0x381db60c	3.760126e-05
116	0x38a11d86	7.6825774e-05
117	0x38882ed1	6.4937056e-05
118	0x38999490	7.3232804e-05
119	0x390e3c18	0.00013564562
120	0x3923a69d	0.0001560696
121	0x391db7fe	0.00015041229
122	0x383ac5bb	4.4530007e-05
123	0x391fdc7c	0.00015245558
124	0x38a7a88a	7.9945734e-05
125	0x388e260e	6.778176e-05
126	0x38d4889e	0.00010134395
127	0x392ed20e	0.00016672185
128	0x39b0c7ce	0.00033718202
129	0x38e108f8	0.000107305066
130	0x38c320c9	9.304431e-05
131	0x38bed18b	9.0989364e-05
132	0x39ea43fc	0.0004468261
133	0x3981faa7	0.00024791548
134	0x39871f8c	0.0002577271
135	0x395d80c2	0.00021124168
136	0x3a983921	0.0011613705
137	0x3a08745e	0.00052053283
138	0x3a0a3018	0.0005271449
139	0x3a050a74	0.0005075105
140	0x39de97c2	0.00042456208
141	0x39898fa1	0.00026237688
142	0x39918438	0.00027755066
143	0x3971b0d0	0.00023049419
144	0x38b39d68	8.564704e-05
145	0x38c3893a	9.323885e-05
146	0x38a70463	7.9639976e-05
147	0x39a49ba4	0.0003139648
148	0x39588618	0.00020649319
149	0x3925e004	0.00015819079
150	0x397aeb29	0.00023929462
151	0x399d2989	0.0002997632
152	0x39ec3279	0.00045051033
153	0x3a095bb3	0.00052397995
154	0x39da1d37	0.00041601967
155	0x3a905a88	0.0011013309
156	0x39609514	0.0002141784
157	0x39243d6c	0.0001566314
158	0x398882b9	0.00026037337
159	0x3983d432	0.00025144365
160	0x000001f4	7e-43
161	0x0fd95141	2.142915e-29
162	0x0fd95141	2.142915e-29
163	0x0c5e0fd3	1.710702e-31
164	0x000001f4	7e-43
165	0x0e9af94d	3.8204e-30
166	0x0e9af94d	3.8204e-30
167	0x106096ca	4.4292374e-29
168	0x0d8c1b73	8.634774e-31
169	0x10ce596e	8.139046e-29
170	0x10ce596e	8.139046e-29
171	0x0f83e80c	1.3006979e-29
172	0x0d68f9f3	7.1791385e-31
173	0x000001f4	7e-43
174	0x000001f4	7e-43
175	0x107852e5	4.8973236e-29
176	0x389301cc	7.009841e-05
177	0x391faea0	0.00015228475
178	0x384e0629	4.9119964e-05
179	0x38bf5641	9.123656e-05
180	0x393cea7b	0.00018016428
181	0x3952a153	0.00020087259
182	0x390cdbae	0.00013433277
183	0x395c9ed5	0.00021040005
184	0x39bd0059	0.00036049148
185	0x3a2f74b7	0.0006693112
186	0x39b14cfe	0.00033817434
187	0x39f24d22	0.00046215305
188	0x395120d6	0.00019944026
189	0x393d632b	0.00018061388
190	0x3913c734	0.00014093221
191	0x39684f41	0.00022154769
192	0x39ec7c9e	0.00045106275
193	0x3a1c0139	0.000595111
194	0x39dd2113	0.00042177047
195	0x3a4d671d	0.00078354945
196	0x3aa3ff00	0.0012511909
197	0x3abdbd40	0.0014475957
198	0x3abe478b	0.0014517171
199	0x3ad65c1c	0.0016354355
200	0x3b2bdeae	0.0026225257
201	0x3b52a4cd	0.0032141686
202	0x3b20f651	0.0024560879
203	0x3b7950cd	0.0038042546
204	0x3ab3d40a	0.0013719809
205	0x3ac80049	0.0015258874
206	0x3ad6fb7b	0.0016401851
207	0x3add5cb2	0.0016888587
208	0x322b1af6	9.95964e-09
209	0x37888d55	1.6278276e-05
210	0x37c4d904	2.3466077e-05
211	0x3796799d	1.7938024e-05
212	0x37db0e43	2.6113476e-05
213	0x38479ee8	4.759329e-05
214	0x38c08bf7	9.181344e-05
215	0x3849c4b1	4.8105318e-05
216	0x3738a147	1.1004805e-05
217	0x38bd09f3	9.0140755e-05
218	0x38bf8711	9.132748e-05
219	0x38b9045e	8.822301e-05
220	0x38257bbb	3.94543e-05
221	0x3858b640	5.1668147e-05
222	0x38e2c6a1	0.00010813517
223	0x385e6aa6	5.302825e-05
224	0x39637c33	0.00021694675
225	0x3959a5b0	0.00020756456
226	0x39edcb69	0.00045355715
227	0x39494397	0.00019194033
228	0x3a0c2dba	0.000534739
229	0x3a39f4a9	0.0007093647
230	0x3a2e9e85	0.00066611945
231	0x39fcd010	0.00048220204
232	0x3a952460	0.0011378638
233	0x3a826104	0.0009947126
234	0x3b0b49fb	0.0021253813
235	0x3a8a7581	0.0010563583
236	0x3a152ff9	0.00056910474
237	0x3a4d7b48	0.00078385
238	0x3a1c2e99	0.00059578713
239	0x3a0829ab	0.00051941973
240	0x3a6531fd	0.00087431056
241	0x3a4c4253	0.00077918655
242	0x3a4fb1b4	0.0007922903
243	0x3a769046	0.00094056537
244	0x3b12927e	0.0022365148
245	0x3b105dc5	0.0022028547
246	0x3b1e9125	0.00241954
247	0x3b12580b	0.002233031
248	0x3b97f291	0.0046370705
249	0x3b8ec88d	0.0043574036
250	0x3b8fe005	0.004390719
251	0x3ba02414	0.0048871133
252	0x3b1d2303	0.0023977167
253	0x3b1d219a	0.0023976327
254	0x3b2e3057	0.0026579106
255	0x3b1cff87	0.0023956017

exp_avg f4 [16]
0	0x397dc165	0.00024200005
1	0x00000000	0.0
2	0xb99d6fc8	-0.00030028657
3	0xb8ae4184	-8.30917e-05
4	0x00000004	6e-45
5	0x00000004	6e-45
6	0x00000004	6e-45
7	0xb905b909	-0.000127528
8	0x393525eb	0.0001727563
9	0xb95a55e4	-0.00020822097
10	0x00000004	6e-45
11	0xb9670deb	-0.00022035062
12	0x3a267a99	0.0006350666
13	0xb8f0ccf4	-0.00011482267
14	0x394b3019	0.00019377506
15	0x3a2826d7	0.0006414479

exp_avg_sq f4 [16]
0	0x38f24903	0.00011553059
1	0x00000000	0.0
2	0x3985dab2	0.00025530678
3	0x37a353d7	1.9470155e-05
4	0x000001f4	7e-43
5	0x000001f4	7e-43
6	0x16a63a3d	2.68555e-25
7	0x3843e76d	4.6707155e-05
8	0x3925f218	0.00015825813
9	0x391210ea	0.00013929946
10	0x0f02e008	6.452642e-30
11	0x38f3d676	0.000116270894
12	0x3a6c3279	0.00090102066
13	0x37e568c2	2.7347709e-05
14	0x39aedb9d	0.0003335149
15	0x3ab6a430	0.001393443

exp_avg f4 [4, 16]
0	0x3a3e47f6	0.0007258648
1	0x00000000	0.0
2	0x39ea3f1c	0.00044678978
3	0x391a93d4	0.00014741655
4	0x80000004	-6e-45
5	0x80000004	-6e-45
6	0x80000004	-6e-45
7	0x38c99914	9.61294e-05
8	0x3923f4a7	0.00015636031
9	0x39e55b1b	0.00043746163
10	0x80000004	-6e-45
11	0x393cd0e2	0.00018006892
12	0x3a930221	0.0011215844
13	0x38c7dbd9	9.530009e-05
14	0x3911c672	0.00013902204
15	0x3b011792	0.0019697887
16	0x3aa4794d	0.0012548357
17	0x00000000	0.0
18	0x3a6d233e	0.0009046084
19	0x39a0966a	0.00030629645
20	0x80000004	-6e-45
21	0x80000004	-6e-45
22	0x00000004	6e-45
23	0x39830997	0.00024993412
24	0x39727665	0.00023123024
25	0x3a6294a6	0.0008643366
26	0x80000004	-6e-45
27	0x39cef2d5	0.00039472306
28	0x3b1c2360	0.0023824796
29	0x397828f6	0.00023666382
30	0x399269db	0.00027926159
31	0x3b57f09b	0.0032949809
32	0x3ab939bf	0.001413159
33	0x00000000	0.0
34	0x3a488bae	0.00076502084
35	0x399ef157	0.0003031592
36	0x80000004	-6e-45
37	0x80000004	-6e-45
38	0x00000004	6e-45
39	0x396bfb42	0.00022504947
40	0x39793e33	0.00023769661
41	0x3a55f611	0.0008161972
42	0x80000004	-6e-45
43	0x39b3b780	0.0003427826
44	0x3b12dd95	0.0022409905
45	0x39a29593	0.0003101049
46	0x399ceda6	0.000299317
47	0x3b68165b	0.0035413716
48	0x3adba27e	0.00167568
49	0x00000000	0.0
50	0x3a8dfc4f	0.001083264
51	0x39c5435a	0.0003762495
52	0x80000004	-6e-45
53	0x80000004	-6e-45
54	0x00000004	6e-45
55	0x39abba3e	0.00032754423
56	0x39a4a5e5	0.0003140412
57	0x3a8d60a8	0.0010786252
58	0x00000004	6e-45
59	0x39f8035d	0.00047304752
60	0x3b3ec0bd	0.002910658
61	0x39aecbf3	0.0003333982
62	0x39b4978d	0.0003444519
63	0x3b8bd9bf	0.0042679007

exp_avg_sq f4 [4, 16]
0	0x3bb60728	0.0055550523
1	0x00000000	0.0
2	0x3af0c8b5	0.0018370362
3	0x3974cea2	0.0002334663
4	0x000001f4	7e-43
5	0x000001f4	7e-43
6	0x0d3f5280	5.8955725e-31
7	0x390466d7	0.00012626812
8	0x39ae7110	0.00033272104
9	0x3af20dce	0.0018467249
10	0x07787a10	1.8693317e-34
11	0x39f235d5	0.00046197945
12	0x3c81bb27	0.015836312
13	0x392e78d9	0.00016638952
14	0x39cb86aa	0.0003881951
15	0x3d23ca43	0.039987814
16	0x3ba21e55	0.0049474635
17	0x00000000	0.0
18	0x3b074e71	0.002064612
19	0x398af17c	0.0002650133
20	0x000001f4	7e-43
21	0x000001f4	7e-43
22	0x0854ba26	6.4015246e-34
23	0x3942f3d4	0.00018592115
24	0x393f048e	0.00018216876
25	0x3b0bda1b	0.0021339718
26	0x08812a20	7.773809e-34
27	0x39f17f17	0.0004606179
28	0x3c8a9f21	0.016921582
29	0x393e2f63	0.00018137465
30	0x397a4c63	0.00023870314
31	0x3d098a76	0.033579312
32	0x3b94ac45	0.0045371377
33	0x00000000	0.0
34	0x3ab1e634	0.0013572634
35	0x3948bbcf	0.0001914345
36	0x000001f4	7e-43
37	0x000001f4	7e-43
38	0x0b81b50c	4.99614e-32
39	0x3918a8d2	0.0001455874
40	0x391cfd5e	0.00014971706
41	0x3ac2ba82	0.0014856609
42	0x07041f74	9.93982e-35
43	0x398db5b3	0.00027028992
44	0x3c413dac	0.011794489
45	0x393d9a1c	0.00018081855
46	0x394a876d	0.00019314671
47	0x3ce0b8d6	0.027431887
48	0x3bd0a7f0	0.006367676
49	0x00000000	0.0
50	0x3b1d4977	0.0024000087
51	0x39b0b248	0.00033702166
52	0x000001f4	7e-43
53	0x000001f4	7e-43
54	0x0af19791	2.3264469e-32
55	0x39820d1b	0.00024805297
56	0x395a34b9	0.00020809741
57	0x3b29c8f9	0.0025907143
58	0x068283f5	4.909446e-35
59	0x3a07e8d1	0.00051845337
60	0x3ca7294f	0.02040544
61	0x398092a9	0.00024523333
62	0x3991a741	0.0002778117
63	0x3d27a88b	0.04093222

exp_avg f4 [4]
0	0x391d2f7a	0.00014990373
1	0x399d9039	0.00030052828
2	0x39ad87c4	0.00033098285
3	0x39ca1c28	0.0003854942

exp_avg_sq f4 [4]
0	0x39a47d3b	0.00031373822
1	0x3988f0c3	0.00026119323
2	0x39659883	0.00021895957
3	0x39a760c7	0.00031924827
