matrix_multiplication_model.pth (torch, 15238 bytes, 24 tensors)

conv1.weight f4 [8, 2, 1, 1]
000000 f5 0b 0d ba 8e 0b 15 bd 80 d9 9c 3f e2 91 f9 3e
       -0.0005380505 -0.036387973 1.2253876 0.48744112
000010 e3 84 87 3f 2c 00 4e 3e 04 38 a4 bf d7 c9 1c 3f
       1.0587429 0.20117253 -1.2829595 0.61245483
000020 67 03 85 be c3 2c c9 be 54 ad ea be 85 9c 9d be
       -0.25979158 -0.39291963 -0.45835364 -0.30783477
000030 0a 11 aa 3d b9 8d bc 3f 10 e7 34 bf 46 c1 52 bc
       0.08304031 1.473075 -0.70665073 -0.012863463

conv1.bias f4 [8]
000000 2f 9b 9c bd c9 9d 3b c0 ac f7 bd bf 58 2e c5 3f
       -0.076467864 -2.9315054 -1.4841208 1.5404768
000010 6c b3 08 3e 74 d3 00 3f af 94 db bf 70 d1 f9 3e
       0.13349694 0.5032265 -1.715475 0.487926

conv2.weight f4 [4, 8, 1, 1]
000000 92 a1 33 bc a4 7c 1e 3f e4 72 ce bf 20 78 51 bf
       -0.010963814 0.61908937 -1.6128812 -0.8182392
000010 de 5c 21 3e 7c ca bc bc 94 0b cb bd 4d 0a b3 3d
       0.15758082 -0.02304577 -0.09914318 0.08742199
000020 4a f3 bc bd e6 03 97 3f 0d db 86 bf cd 1f 3b bf
       -0.09226091 1.1798065 -1.0535599 -0.730954
000030 fa 50 3b 3c 33 96 3a be 06 de 59 3f 55 ae 05 3e
       0.011432881 -0.18221359 0.85104406 0.13054784
000040 b6 e1 7a 3d 23 25 7a 3e 09 93 84 be 2f 5e 96 bb
       0.06125041 0.24428229 -0.2589343 -0.0045888643
000050 76 76 ca 3d d7 48 85 be 6b 38 90 be f1 a2 85 3e
       0.09885876 -0.26032135 -0.28168043 0.26100877
000060 fb d7 c5 3d 38 4b 05 bf 45 50 ae 3f 18 36 5b 3c
       0.09660336 -0.520679 1.3618246 0.013379596
000070 53 05 8d be 60 5c 0d 3e 97 55 1a bd e1 ed 40 3d
       -0.27543125 0.1380477 -0.03767928 0.04710186

conv2.bias f4 [4]
000000 06 4d e8 3f 96 d8 20 3f 35 2b 4d be 6e 09 19 be
       1.8148506 0.62830484 -0.20036013 -0.14945003

fc1.weight f4 [16, 16]
000000 ef c9 72 3b da a8 18 3d 46 59 37 c0 8c 51 87 bc
       0.0037046631 0.037270404 -2.8648238 -0.016518377
000010 36 1c 0c 3c 91 bc 5d 3d 6e 15 a8 3f ce 7b 34 3b
       0.008551648 0.05413491 1.313154 0.0027539614
000020 f0 02 e8 3d 7a 3c 18 be 02 81 21 be 48 bb b4 3d
       0.11328685 -0.1486682 -0.15771869 0.088247836
000030 67 e8 c6 bc 49 2f 29 40 1f a0 d5 bf f0 2e 00 3c
       -0.02428074 2.643511 -1.668949 0.007823691
000040 1a ab 4e 3e 78 56 8f be 10 ab d2 3d f7 88 98 be
       0.20182458 -0.27995658 0.10286534 -0.29791996
000050 4e 44 ad bd 87 79 6e be 50 b5 bc be 30 61 84 bd
       -0.08460294 -0.23288547 -0.3685708 -0.064638495
000060 5a 96 0a 3e 9e f2 48 be 3e 55 0f 3e e0 f7 af 3d
       0.13533917 -0.19623801 0.13997361 0.085922
000070 e8 cb a4 3d cc 56 9a be 10 03 80 be db a1 a0 be
       0.080467045 -0.30144346 -0.25002337 -0.31373486
000080 a3 d8 bd bd 3e c0 22 40 ac 79 b8 bc 35 49 ea bc
       -0.09269836 2.5429835 -0.022518955 -0.028599361
000090 5d 37 62 bd 8f 06 a1 bf a0 7b 88 bc 0e 0d af 3d
       -0.05522858 -1.2580127 -0.016660511 0.08547412
0000a0 aa 66 57 3e a4 bb fa bd 8e 7d 78 be 28 06 2a 3e
       0.21035257 -0.12242821 -0.24266645 0.16603911
0000b0 6f 30 0a c0 87 2c 05 40 15 d2 78 3a 81 45 10 bd
       -2.1592062 2.0808427 0.0009491754 -0.035222534
0000c0 4b 56 a1 bc 1e 41 4c 40 a2 76 80 3d d1 92 c8 bc
       -0.019694468 3.1914744 0.062726274 -0.02448407
0000d0 9a 1b e9 3a c2 1b 61 c0 1f c1 dc 3c 72 8a 90 bb
       0.0017784715 -3.5173192 0.026947556 -0.004411035
0000e0 e0 fd 2e be ba 75 5f be d8 01 bd 3d 84 b4 4e be
       -0.17089033 -0.21822253 0.09228867 -0.20186049
0000f0 f6 8e 7b 3c 9d 82 2c 40 b9 a2 49 3f 22 5c 29 bc
       0.015353909 2.695472 0.7876392 -0.010336908
000100 64 8f 40 bd ea 97 48 bf 7a 44 4a bc 18 f7 37 c0
       -0.047011748 -0.783568 -0.012345428 -2.8744564
000110 60 1b 43 bd 9a 5e 12 3d 37 c2 c2 bc 38 48 80 3f
       -0.04763353 0.03573475 -0.02377425 1.002204
000120 5a 82 65 be a4 87 36 be c4 05 f0 3d 26 3c 05 be
       -0.22413006 -0.1782518 0.1171985 -0.13011226
000130 dd ef 81 3e e5 a7 e7 3f f7 03 46 3b e9 38 a4 bf
       0.25378314 1.8098112 0.0030214766 -1.2829868
000140 49 90 92 be e1 73 bf bc 3e 75 fb bd ba 2b 86 be
       -0.28625706 -0.023370685 -0.122782215 -0.26205236
000150 5d 91 a5 be 8b b8 88 be f7 d5 a6 be 54 0b 8f be
       -0.32337466 -0.26703295 -0.32585117 -0.2793833
000160 26 23 3b 3e 00 67 10 bd 7e 89 30 3e d2 29 7f 3e
       0.18275127 -0.03525448 0.17239949 0.24918297
000170 45 47 61 be 23 9a 09 bf 01 6f 20 bf c5 81 fb be
       -0.21999843 -0.5375082 -0.6266938 -0.49122444
000180 31 33 c2 3e 67 9e 5c 3c 40 f5 ce be 84 a2 ee bd
       0.3792968 0.0134655 -0.40421486 -0.11652091
000190 6f 90 8f 3f 54 9c 08 3d 93 0d 81 3e 59 08 22 be
       1.1215953 0.03335221 0.2520567 -0.15823497
0001a0 c4 1e e9 3d 68 5f 4f bd 2c a3 39 3e fc 54 af 3d
       0.11382821 -0.050628096 0.18128651 0.08561131
0001b0 4f 9c 90 3f 3d 1a 63 3f 08 9e 3d bf ba 79 a8 be
       1.1297702 0.8871191 -0.7406926 -0.3290537
0001c0 e8 23 ea be 1d 2c 8c be ab 11 fb be 98 38 df be
       -0.4573052 -0.27377406 -0.49036917 -0.43597865
0001d0 4e f5 0e bf f7 3e 62 be 41 3c 61 be 57 8d 06 bf
       -0.55843055 -0.22094332 -0.21995641 -0.5255942
0001e0 28 fa f1 3d 10 5c a0 3c f6 38 4c be 30 23 e0 bc
       0.11815292 0.019575149 -0.19943604 -0.027360529
0001f0 fc 3d 46 be 36 7e 22 bf b0 9a 18 bf 3c 54 e5 be
       -0.19359583 -0.6347383 -0.59611034 -0.44790828
000200 31 6f 2c c0 17 7d 4d 3c 06 f0 d9 bb aa 02 9d 3d
       -2.6942866 0.012542031 -0.0066509275 0.07666524
000210 71 cf a3 3f df e7 d9 bc 44 3e 60 3d 77 a1 89 3c
       1.2797681 -0.026599823 0.05474688 0.016800625
000220 80 0e 0c 3d 46 23 7d be 80 95 b4 3c 90 81 94 3d
       0.034193516 -0.24720487 0.022043943 0.072512746
000230 c2 3b cf bf 93 f0 93 3c ea 4c 21 40 e0 bb 6b bc
       -1.6190112 0.01805905 2.5203195 -0.014388055
000240 3f 93 ae 3a 43 a6 05 3d 5f c8 01 c0 47 be 46 bd
       0.0013319029 0.032629263 -2.0278547 -0.048521306
000250 52 c7 cd 3d c2 2f 17 3c e3 8f 6e 3f 21 36 f9 bc
       0.10047783 0.009227695 0.93188304 -0.030421318
000260 c0 7c 5c 3e a6 f3 47 3e 6a a7 5b 3e 56 eb 15 3e
       0.21531963 0.19526538 0.21450582 0.14640555
000270 ab 61 98 bd 4b 2a bd 3c 06 ec b7 bf 4c d9 e6 bf
       -0.07440504 0.023091456 -1.4368904 -1.8035064
000280 cc 96 07 3f 3d d6 45 3e a3 90 7b 3e 9d c4 ce 3e
       0.5296447 0.19320007 0.24566893 0.4038438
000290 da 7c 49 3f 10 0f 8c bd b0 18 f3 bc 4b 99 eb 3e
       0.78706133 -0.068388104 -0.029674858 0.4601539
0002a0 cc 9c d1 3d 00 75 2e bb 20 7e 5a 3e c0 ae 90 bc
       0.10234985 -0.002662003 0.21337175 -0.017661452
0002b0 e6 f4 35 bd 41 12 3f 3d 0e 41 78 3f d0 9b 82 3e
       -0.044423006 0.046648268 0.96974266 0.255095
0002c0 f4 97 f0 3d 35 42 06 3d 1d 08 9e 3d ac 31 ff 3f
       0.11747733 0.032777984 0.07716391 1.9937034
0002d0 d2 f9 32 3b 01 3a 57 3e 4c a5 9c 3c dc 53 80 bf
       0.002730955 0.2101822 0.019121788 -1.0025592
0002e0 2e ce 43 3e bc c0 5a 3e b0 15 a7 3d 5a 43 3f be
       0.1912162 0.21362585 0.081584334 -0.18678036
0002f0 cc 2f 94 be 9a 56 f9 3f ae dc 10 3c 69 47 92 3f
       -0.28942716 1.9479554 0.008841677 1.1428043
000300 51 0b c6 be 0a 8a a1 bf cf ac 8f bf 86 c6 a4 bd
       -0.3868051 -1.2620251 -1.1224612 -0.08045678
000310 77 b1 03 3f f3 1f 73 3f 2b a0 29 3f 8d 24 50 3f
       0.51442665 0.94970626 0.6626002 0.8130577
000320 d0 38 2d 3e 32 a2 29 be 48 b4 de bd 7c 30 91 3d
       0.16916203 -0.16565779 -0.1087423 0.07089326
000330 4a ff 2d 3f 41 fd b7 be e0 95 63 3f b8 3c 4e 3f
       0.67967665 -0.35935405 0.88900566 0.805614
000340 ef a9 9f 3d cd d5 b7 3d 9c a6 15 c0 0a 38 2f be
       0.07796084 0.08976326 -2.338294 -0.17111221
000350 d6 87 4e 3d 85 ad 7d bc 41 d5 2a 3f 8f 93 57 bc
       0.050422512 -0.015483265 0.6673165 -0.013157739
000360 d4 b0 c9 bd 00 9b e4 3d 6a 2d 3b be c8 75 6c 3e
       -0.098481804 0.111623764 -0.18279043 0.23091805
000370 cd 9e 2f bb 98 73 0d 3d a0 23 56 bf 18 92 ca 3f
       -0.0026797534 0.034534067 -0.8364811 1.5825834
000380 b9 54 11 3f c1 3a 74 bf 46 dc 14 3f f7 97 3e be
       0.567699 -0.9540215 0.5814861 -0.18612657
000390 b4 be c2 3e c7 bd 3b 3f 78 e8 75 be 8e c8 05 3f
       0.3803612 0.7333645 -0.24014461 0.5225915
0003a0 d0 64 ad bc 3c 92 ef bd 28 60 89 bd fe a7 1f be
       -0.021166235 -0.11697814 -0.067077935 -0.15591428
0003b0 fe 13 ba 3f 86 54 b8 3d a7 69 29 3f b9 6d ba be
       1.4537351 0.090004966 0.6617684 -0.36411837
0003c0 52 6c 9b bc d6 11 39 40 e5 97 be bc d8 9e b2 ba
       -0.01897255 2.8917136 -0.023265788 -0.0013627661
0003d0 6e f2 48 3b 0a a4 2f c0 5d 21 bd bc b4 c7 7f bb
       0.0030662077 -2.7443871 -0.023087198 -0.0039028944
0003e0 a0 9d 13 bd 54 46 80 3d 4a 65 18 be 5e cd 0e 3e
       -0.036038995 0.06263414 -0.14882389 0.13945529
0003f0 70 fa c5 bb a8 42 27 40 a2 4a 55 bf 4f df cf 3b
       -0.0060418174 2.6134434 -0.83317006 0.006343759

fc1.bias f4 [16]
000000 87 00 ab bf 7b 31 9e be c2 2d 63 3f 31 f1 fc 3e
       -1.3359536 -0.30897126 0.88741696 0.49402764
000010 d6 45 b4 bf b7 fe 8f be b2 db bb 3f 54 ef d9 bd
       -1.4083812 -0.2812402 1.4676421 -0.10641351
000020 b7 f4 ad bf f5 98 15 40 a6 cf 84 be 14 9c 0d c0
       -1.3590306 2.3374608 -0.25939673 -2.2126513
000030 5b 1c d3 3f ef 83 b1 bf 90 53 0f 3f f0 d0 6b 3f
       1.6493028 -1.3868388 0.5598688 0.9211569

fc2.weight f4 [4, 16]
000000 87 51 5a 3f 6d 22 b1 bd 8c dc 6e 3a 56 d3 a1 3c
       0.8528065 -0.08649144 0.00091118435 0.019754093
000010 7d 5c 86 bd 39 f8 06 3e 8b 67 b4 3f dd f2 67 bd
       -0.065606095 0.13180627 1.4094099 -0.056628097
000020 cf 42 4b bc d4 2d 73 bd 10 3a b3 3e aa cb 75 bd
       -0.012406065 -0.059369877 0.35005236 -0.060008682
000030 4b 7d 9e 3e 77 17 c1 bd aa f7 b9 be 58 f1 98 bc
       0.30954966 -0.09428304 -0.36321765 -0.01866977
000040 50 44 b8 3c 4c 2d 93 3c 00 8e 79 3f e6 80 8a bd
       0.022493511 0.017965935 0.974823 -0.06762867
000050 f9 d2 30 3f 1b b1 49 3d 03 01 84 3e 50 74 b2 be
       0.6907192 0.049241167 0.25782022 -0.34854364
000060 d9 77 07 3c de 2e b0 ba 65 4a b2 bf 26 5f 0d bf
       0.00826832 -0.0013441702 -1.3928953 -0.5522331
000070 91 24 ec 3e 91 3b 50 3c 87 a1 dd 3f ae 5d ae bd
       0.46121648 0.012709514 1.7314919 -0.08513962
000080 9b 15 3a 3b 29 c0 60 3d e4 59 ab 3b d0 d3 b2 bb
       0.0028394226 0.05487076 0.0052292217 -0.005457379
000090 9e 23 a4 b9 3c 06 92 3e d9 95 0b 3f 20 95 85 be
       -0.00031307054 0.2852038 0.54525524 -0.26090336
0000a0 ea 13 5e 3f 53 be 0b bf dc 41 d0 bc be 96 39 bc
       0.86749136 -0.54587287 -0.02542203 -0.011327444
0000b0 a4 81 85 3f 8e f6 82 3f f7 bd ab bf 65 87 35 3c
       1.0430188 1.0231493 -1.3417348 0.011079644
0000c0 73 15 e4 bb 1a dd a5 3b 7a 82 2a bc 00 f3 99 bf
       -0.0069605648 0.0050617578 -0.010407085 -1.2027283
0000d0 3d 48 ea bc 42 93 a3 3d 42 be b7 bf 79 12 ba be
       -0.028598899 0.079870716 -1.4354937 -0.3634222
0000e0 4e db 81 3c c3 db a0 3c 5f 63 86 3f ae b4 ba bc
       0.015851643 0.01963604 1.0499076 -0.022791233
0000f0 fb e6 78 3f b6 ce ad 3c 5c d4 35 3f 0a 0b cd 3f
       0.9722745 0.021216732 0.7102716 1.6018994

fc2.bias f4 [4]
000000 6e 11 b5 3e ae dc 94 3e ac 34 63 40 1b 0a ff 3f
       0.3536486 0.29074615 3.5500898 1.9924959

exp_avg f4 [8, 2, 1, 1]
000000 04 00 00 00 04 00 00 00 1a 67 da ba 11 ee d3 ba
       6e-45 6e-45 -0.0016662807 -0.0016168972
000010 52 a2 61 ba ed 8d 87 b8 54 7e 9f 39 60 03 3b 3a
       -0.00086072565 -6.4637374e-05 0.00030420965 0.0007133987
000020 00 00 00 00 00 00 00 00 00 00 00 00 00 00 00 00
       0.0 0.0 0.0 0.0
000030 ee f8 2c bb 28 83 39 bb 04 00 00 00 04 00 00 00
       -0.002639349 -0.0028306935 6e-45 6e-45

exp_avg_sq f4 [8, 2, 1, 1]
000000 f4 01 00 00 f4 01 00 00 b3 f9 f0 3c a4 90 e4 3c
       7e-43 7e-43 0.02941594 0.027901001
000010 1c 9f c1 3c cd b4 f0 3b a1 ba 5e 3a d8 2a 8c 3b
       0.02363544 0.007345772 0.0008496438 0.0042775683
000020 00 00 00 00 00 00 00 00 00 00 00 00 00 00 00 00
       0.0 0.0 0.0 0.0
000030 a5 63 8e 3d cd 8e a7 3d f4 01 00 00 f4 01 00 00
       0.069525994 0.08181534 7e-43 7e-43

exp_avg f4 [8]
000000 04 00 00 00 21 44 2f ba dc df 85 b9 f5 f3 32 39
       6e-45 -0.0006685872 -0.00025534525 0.00017066284
000010 00 00 00 00 00 00 00 00 54 c4 a7 ba 04 00 00 00
       0.0 0.0 -0.0012799599 6e-45

exp_avg_sq f4 [8]
000000 f4 01 00 00 9e dc 82 3b d2 f4 80 3b a0 fd 9c 39
       7e-43 0.003993585 0.003935435 0.00029943604
000010 00 00 00 00 00 00 00 00 b0 45 7a 3c f4 01 00 00
       0.0 0.0 0.015275404 7e-43

exp_avg f4 [4, 8, 1, 1]
000000 04 00 00 00 2c 6c 48 39 8b 0d af 39 e1 a1 bf 39
       6e-45 0.00019113783 0.0003338869 0.00036550968
000010 00 00 00 00 00 00 00 00 bb c3 21 3a 04 00 00 00
       0.0 0.0 0.0006170829 6e-45
000020 04 00 00 80 a7 b8 a4 ba a2 db e1 ba 64 24 5b ba
       -6e-45 -0.0012567238 -0.0017231593 -0.00083596096
000030 00 00 00 00 00 00 00 00 ac 3d 26 bb 04 00 00 00
       0.0 0.0 -0.002536635 6e-45
000040 00 00 00 00 00 00 00 00 00 00 00 00 00 00 00 00
       0.0 0.0 0.0 0.0
000050 00 00 00 00 00 00 00 00 00 00 00 00 00 00 00 00
       0.0 0.0 0.0 0.0
000060 04 00 00 80 a8 bb 7b ba b5 ca ad ba fb 0a 83 b9
       -6e-45 -0.0009602853 -0.0013259264 -0.00024994448
000070 00 00 00 00 00 00 00 00 15 39 60 ba 04 00 00 80
       0.0 0.0 -0.0008553428 -6e-45

exp_avg_sq f4 [4, 8, 1, 1]
000000 f4 01 00 00 7c cf 41 39 a7 4d b3 3a c0 e0 01 3b
       7e-43 0.00018483208 0.0013679758 0.00198178
000010 00 00 00 00 00 00 00 00 22 c1 8d 3b f4 01 00 00
       0.0 0.0 0.0043260017 7e-43
000020 f4 01 00 00 f8 e1 a2 3c e1 36 0a 3d 20 67 f7 3b
       7e-43 0.01988314 0.033743743 0.0075501353
000030 00 00 00 00 00 00 00 00 ba ca 95 3d f4 01 00 00
       0.0 0.0 0.07314058 7e-43
000040 00 00 00 00 00 00 00 00 00 00 00 00 00 00 00 00
       0.0 0.0 0.0 0.0
000050 00 00 00 00 00 00 00 00 00 00 00 00 00 00 00 00
       0.0 0.0 0.0 0.0
000060 f4 01 00 00 8c 3a 3d 3c 4e 41 ae 3c f0 95 1a 3a
       7e-43 0.011549603 0.021271374 0.0005896976
000070 00 00 00 00 00 00 00 00 80 c4 9a 3c f4 01 00 00
       0.0 0.0 0.018892527 7e-43

exp_avg f4 [4]
000000 5a d0 1d 3a de e7 c1 ba 00 00 00 00 3f ca 42 ba
       0.00060201215 -0.0014793833 0.0 -0.000743065

exp_avg_sq f4 [4]
000000 64 36 97 3b 1a cf a8 3c 00 00 00 00 b5 00 07 3c
       0.004614638 0.020606566 0.0 0.008239915

exp_avg f4 [16, 16]
000000 3c e0 14 36 b2 5b e2 b6 8d f6 7e 36 60 52 aa b4
       2.218424e-06 -6.7459996e-06 3.799246e-06 -3.1724903e-07
000010 7d bf a3 b7 03 fb 25 38 e8 6c 68 b7 99 a3 66 35
       -1.9520283e-05 3.957284e-05 -1.3853634e-05 8.591974e-07
000020 00 00 00 00 00 00 00 00 00 00 00 00 00 00 00 00
       0.0 0.0 0.0 0.0
000030 2d bf 0c b7 ee 02 96 36 96 5d 1e b7 fc c2 50 37
       -8.389162e-06 4.4706894e-06 -9.439324e-06 1.2443164e-05
000040 00 00 00 00 04 00 00 00 00 00 00 00 04 00 00 00
       0.0 6e-45 0.0 6e-45
000050 04 00 00 00 04 00 00 00 04 00 00 00 04 00 00 00
       6e-45 6e-45 6e-45 6e-45
000060 00 00 00 00 00 00 00 00 00 00 00 00 00 00 00 00
       0.0 0.0 0.0 0.0
000070 04 00 00 00 04 00 00 00 04 00 00 00 04 00 00 00
       6e-45 6e-45 6e-45 6e-45
000080 72 b3 5a b8 90 49 1d b8 fd 9c 02 b8 60 94 0c b8
       -5.214237e-05 -3.7500227e-05 -3.1140622e-05 -3.3516786e-05
000090 d5 98 0d b9 cf c5 5f b8 3e c5 24 b9 68 d5 2e b9
       -0.00013503742 -5.3351567e-05 -0.00015713737 -0.00016673433
0000a0 00 00 00 00 00 00 00 00 00 00 00 00 00 00 00 00
       0.0 0.0 0.0 0.0
0000b0 18 95 ac b8 79 e5 0f b9 75 3e fa b8 cf 02 cb b8
       -8.22937e-05 -0.00013723028 -0.000119325625 -9.6803175e-05
0000c0 ff 35 25 38 16 eb 9c 38 1c 9b 13 b7 0e bf 03 38
       3.9389353e-05 7.482448e-05 -8.797997e-06 3.1410767e-05
0000d0 d7 cb 6b 39 ba eb 35 38 7d 35 a6 39 87 ce 62 39
       0.00022487283 4.33733e-05 0.0003170184 0.00021629977
0000e0 00 00 00 00 00 00 00 00 00 00 00 00 00 00 00 00
       0.0 0.0 0.0 0.0
0000f0 ab a6 0a 39 f9 2d a2 38 a4 0d 97 39 05 54 4a 39
       0.00013222794 7.733325e-05 0.00028811127 0.00019295521
000100 ac 3f 42 b7 e0 d4 af b6 1f ca cc b7 8f ea a0 36
       -1.1578126e-05 -5.2401883e-06 -2.4412815e-05 4.795678e-06
000110 13 4e 08 b9 13 af de b8 1b a5 0b b9 1b b1 5a b9
       -0.00012999056 -0.00010618395 -0.0001331758 -0.00020856077
000120 00 00 00 00 00 00 00 00 00 00 00 00 00 00 00 00
       0.0 0.0 0.0 0.0
000130 2d 3a e2 b8 a6 b2 c6 b8 52 99 94 b8 08 49 de b8
       -0.00010787356 -9.4746516e-05 -7.085748e-05 -0.00010599388
000140 04 00 00 00 04 00 00 00 04 00 00 00 04 00 00 00
       6e-45 6e-45 6e-45 6e-45
000150 04 00 00 00 04 00 00 00 04 00 00 00 04 00 00 00
       6e-45 6e-45 6e-45 6e-45
000160 00 00 00 00 00 00 00 00 00 00 00 00 00 00 00 00
       0.0 0.0 0.0 0.0
000170 04 00 00 00 04 00 00 00 04 00 00 00 04 00 00 00
       6e-45 6e-45 6e-45 6e-45
000180 61 d3 8f 38 53 95 8e 38 54 5d 85 38 2a b0 84 38
       6.858144e-05 6.7989014e-05 6.359318e-05 6.3270636e-05
000190 87 78 ba 39 a7 b8 a5 39 98 63 aa 39 ba 99 be 39
       0.00035566484 0.0003160883 0.0003249913 0.0003635416
0001a0 00 00 00 00 00 00 00 00 00 00 00 00 00 00 00 00
       0.0 0.0 0.0 0.0
0001b0 86 92 97 39 37 b8 b3 39 b0 ee a5 39 12 15 9d 39
       0.00028910133 0.0003427879 0.00031649088 0.00029961072
0001c0 04 00 00 00 04 00 00 00 04 00 00 00 04 00 00 00
       6e-45 6e-45 6e-45 6e-45
0001d0 04 00 00 00 04 00 00 00 04 00 00 00 04 00 00 00
       6e-45 6e-45 6e-45 6e-45
0001e0 00 00 00 00 00 00 00 00 00 00 00 00 00 00 00 00
       0.0 0.0 0.0 0.0
0001f0 04 00 00 00 04 00 00 00 04 00 00 00 04 00 00 00
       6e-45 6e-45 6e-45 6e-45
000200 c1 3a 04 36 77 52 ad 36 65 0f b0 b5 d1 13 f3 36
       1.9703732e-06 5.165402e-06 -1.3117502e-06 7.2442713e-06
000210 14 f8 fc 37 8d 8b 7a 38 ca 7f 8b 36 1d 19 2b b7
       3.0156261e-05 5.973461e-05 4.1573994e-06 -1.0198241e-05
000220 00 00 00 00 00 00 00 00 00 00 00 00 00 00 00 00
       0.0 0.0 0.0 0.0
000230 73 89 fb 36 3f 84 f2 37 7e 63 83 37 cb b5 19 38
       7.496384e-06 2.891023e-05 1.5662747e-05 3.664735e-05
000240 5c 03 c2 b6 8b 64 07 b7 6f 71 07 b7 0a e7 a8 b4
       -5.7820416e-06 -8.0700365e-06 -8.073038e-06 -3.1460542e-07
000250 c9 2e df b7 eb a1 04 b8 0c 70 1f b8 8c df aa b8
       -2.6605458e-05 -3.162205e-05 -3.8012906e-05 -8.1478705e-05
000260 00 00 00 00 00 00 00 00 00 00 00 00 00 00 00 00
       0.0 0.0 0.0 0.0
000270 41 d1 c5 b7 20 a2 81 b8 b1 86 09 b7 02 6b e8 b6
       -2.3581671e-05 -6.1813975e-05 -8.197197e-06 -6.926596e-06
000280 35 ac e8 37 52 2c 59 37 75 72 20 38 6e 2c 80 38
       2.7736745e-05 1.2944527e-05 3.825357e-05 6.111791e-05
000290 ad fd 5d 39 d5 9d b1 39 28 18 77 39 bf 14 6f 39
       0.00021170704 0.00033877665 0.00023564755 0.00022800545
0002a0 00 00 00 00 00 00 00 00 00 00 00 00 00 00 00 00
       0.0 0.0 0.0 0.0
0002b0 84 e6 3d 39 9d 3d 13 39 68 49 04 39 e0 fe 01 39
       0.00018110318 0.00014041965 0.00012615847 0.00012397347
0002c0 1b cf 99 37 e0 c5 fe 36 f3 36 fd 37 64 92 db 37
       1.8335462e-05 7.5928256e-06 3.0185538e-05 2.6175003e-05
0002d0 89 b1 28 39 d6 cb 23 39 37 da 23 39 64 59 fb 38
       0.00016087866 0.00015620826 0.00015626183 0.00011985263
0002e0 00 00 00 00 00 00 00 00 00 00 00 00 00 00 00 00
       0.0 0.0 0.0 0.0
0002f0 1c fd c1 38 1d 49 09 39 39 83 e9 38 22 3c 08 39
       9.2501024e-05 0.00013092575 0.00011134748 0.00012992372
000300 63 a7 95 b8 be da b7 b8 8d 91 a6 b8 ef 44 94 b8
       -7.136052e-05 -8.766864e-05 -7.942608e-05 -7.07003e-05
000310 09 d6 f0 b9 52 00 8d b9 d9 59 e9 b9 d4 cf e7 b9
       -0.00045935836 -0.00026893854 -0.00044508165 -0.00044214597
000320 00 00 00 00 00 00 00 00 00 00 00 00 00 00 00 00
       0.0 0.0 0.0 0.0
000330 44 8b c0 b9 10 bc 9a b9 a0 f7 c1 b9 77 ed 9c b9
       -0.00036724855 -0.00029513286 -0.00036996324 -0.00029931564
000340 d9 ee 3c 37 57 fa 83 b6 17 b5 51 36 cc df 9e b5
       1.1261284e-05 -3.9332476e-06 3.1248835e-06 -1.1837051e-06
000350 2b 3e a1 37 98 b4 06 37 1c 5f 70 38 22 b2 13 b8
       1.9221645e-05 8.02907e-06 5.7309036e-05 -3.521343e-05
000360 00 00 00 00 00 00 00 00 00 00 00 00 00 00 00 00
       0.0 0.0 0.0 0.0
000370 8c 03 9b 37 28 5a b9 b5 49 81 81 b7 cc 6f 6c b7
       1.8479092e-05 -1.3809813e-06 -1.5438201e-05 -1.4092726e-05
000380 16 9d 21 b9 bc a6 37 b9 c2 1d 29 b9 9f c9 42 b9
       -0.00015412676 -0.00017514353 -0.00016128182 -0.00018576391
000390 ac 51 86 ba 9a c8 6e ba 84 46 71 ba 09 f8 84 ba
       -0.0010247729 -0.00091088715 -0.0009203928 -0.0010144721
0003a0 00 00 00 00 00 00 00 00 00 00 00 00 00 00 00 00
       0.0 0.0 0.0 0.0
0003b0 b5 50 4d ba f2 34 42 ba c7 fc 4b ba 00 91 39 ba
       -0.00078321557 -0.0007408402 -0.0007781502 -0.00070787966
0003c0 2d 89 cd b7 8e 25 82 b8 e5 3f ca b7 9b 60 d2 b7
       -2.4501782e-05 -6.205878e-05 -2.411003e-05 -2.5078936e-05
0003d0 bd c9 3c b9 66 84 92 36 bb 9a 41 b9 2d 2c 5e b9
       -0.0001800423 4.3665523e-06 -0.00018463556 -0.00021188027
0003e0 00 00 00 00 00 00 00 00 00 00 00 00 00 00 00 00
       0.0 0.0 0.0 0.0
0003f0 ca 6e 21 b9 bd cb d7 b8 7d 9d c1 b8 40 54 fe b8
       -0.00015395429 -0.00010289948 -9.2322916e-05 -0.000121273566

exp_avg_sq f4 [16, 16]
000000 ee b2 0b 36 7f 3c 8a 35 ba da bc 35 42 1a 8e 36
       2.0816765e-06 1.0299408e-06 1.4070749e-06 4.2349866e-06
000010 61 31 06 39 a3 aa 18 39 45 e3 35 39 8a f2 a8 38
       0.00012797631 0.00014559417 0.0001734617 8.056041e-05
000020 00 00 00 00 00 00 00 00 00 00 00 00 00 00 00 00
       0.0 0.0 0.0 0.0
000030 ad ac 8b 38 f7 28 d7 38 eb 18 84 38 6b e8 4f 38
       6.6602e-05 0.00010259629 6.298892e-05 4.9569102e-05
000040 00 00 00 00 f4 01 00 00 00 00 00 00 f4 01 00 00
       0.0 7e-43 0.0 7e-43
000050 f4 01 00 00 f4 01 00 00 f4 01 00 00 f4 01 00 00
       7e-43 7e-43 7e-43 7e-43
000060 00 00 00 00 00 00 00 00 00 00 00 00 00 00 00 00
       0.0 0.0 0.0 0.0
000070 f4 01 00 00 f4 01 00 00 f4 01 00 00 f4 01 00 00
       7e-43 7e-43 7e-43 7e-43
000080 87 20 4c 36 eb 53 05 36 cb 36 a2 35 bf 75 af 35
       3.0417302e-06 1.986739e-06 1.2085887e-06 1.3072785e-06
000090 51 44 06 38 1e 97 89 37 9c 0f 44 38 87 3f 65 38
       3.2011714e-05 1.6402042e-05 4.674458e-05 5.465702e-05
0000a0 00 00 00 00 00 00 00 00 00 00 00 00 00 00 00 00
       0.0 0.0 0.0 0.0
0000b0 e9 14 40 37 e4 c4 44 38 d8 f0 f7 37 7f 83 d2 37
       1.144896e-05 4.691341e-05 2.9556846e-05 2.5095183e-05
0000c0 f7 01 c9 36 80 f2 7a 37 7a d1 18 36 01 e1 9a 36
       5.9904955e-06 1.4957623e-05 2.2771696e-06 4.6157515e-06
0000d0 9e e9 3f 39 02 91 46 38 ac 3f 88 39 cb d8 73 39
       0.00018302209 4.7341928e-05 0.0002598738 0.00023255048
0000e0 00 00 00 00 00 00 00 00 00 00 00 00 00 00 00 00
       0.0 0.0 0.0 0.0
0000f0 e9 a7 f0 38 a4 3a f0 38 7b ee 45 39 d4 8f f0 38
       0.000114753675 0.000114550145 0.00018876225 0.00011470882
000100 c1 ad 42 35 d9 e6 94 33 cd 2b 64 35 68 d7 09 34
       7.2523477e-07 6.933778e-08 8.500036e-07 1.2837484e-07
000110 a5 52 01 38 cd c0 4d 38 72 ae d2 37 96 5d 81 38
       3.0832965e-05 4.905537e-05 2.5115183e-05 6.168631e-05
000120 00 00 00 00 00 00 00 00 00 00 00 00 00 00 00 00
       0.0 0.0 0.0 0.0
000130 cd 73 b4 37 3f 0e 14 38 e8 13 95 37 5a ae 7a 37
       2.1511596e-05 3.5299217e-05 1.7771454e-05 1.4941756e-05
000140 f4 01 00 00 f4 01 00 00 f4 01 00 00 f4 01 00 00
       7e-43 7e-43 7e-43 7e-43
000150 f4 01 00 00 f4 01 00 00 f4 01 00 00 f4 01 00 00
       7e-43 7e-43 7e-43 7e-43
000160 00 00 00 00 00 00 00 00 00 00 00 00 00 00 00 00
       0.0 0.0 0.0 0.0
000170 f4 01 00 00 f4 01 00 00 f4 01 00 00 f4 01 00 00
       7e-43 7e-43 7e-43 7e-43
000180 90 ca 23 37 79 36 dd 36 2f ee 80 37 5b f8 86 37
       9.76272e-06 6.5926547e-06 1.5369702e-05 1.6089694e-05
000190 34 8b 02 3a 29 71 09 3a 88 c2 be 39 86 0a bd 39
       0.00049798493 0.00052429974 0.0003638456 0.0003605673
0001a0 00 00 00 00 00 00 00 00 00 00 00 00 00 00 00 00
       0.0 0.0 0.0 0.0
0001b0 26 de 84 39 fb aa a4 39 89 f6 5c 39 c7 9c 56 39
       0.00025342515 0.00031407908 0.00021072676 0.00020467034
0001c0 f4 01 00 00 f4 01 00 00 f4 01 00 00 f4 01 00 00
       7e-43 7e-43 7e-43 7e-43
0001d0 f4 01 00 00 f4 01 00 00 f4 01 00 00 f4 01 00 00
       7e-43 7e-43 7e-43 7e-43
0001e0 00 00 00 00 00 00 00 00 00 00 00 00 00 00 00 00
       0.0 0.0 0.0 0.0
0001f0 f4 01 00 00 f4 01 00 00 f4 01 00 00 f4 01 00 00
       7e-43 7e-43 7e-43 7e-43
000200 84 70 e0 35 b9 d2 60 36 bd cc 37 35 c6 e6 51 36
       1.6722047e-06 3.3501258e-06 6.8470746e-07 3.1277755e-06
000210 be 23 2c 39 23 7b ce 38 b7 9d 32 39 af 9b d7 38
       0.00016416513 9.8457815e-05 0.00017034156 0.00010280997
000220 00 00 00 00 00 00 00 00 00 00 00 00 00 00 00 00
       0.0 0.0 0.0 0.0
000230 4d a8 74 38 2c 3b 78 38 42 e0 ea 38 37 56 77 38
       5.8330876e-05 5.9182916e-05 0.00011199761 5.8969683e-05
000240 b8 2e 17 35 42 29 3c 35 ef 85 25 34 b9 88 c0 35
       5.631987e-07 7.0095496e-07 1.5415547e-07 1.4344906e-06
000250 62 13 fd 37 bf e1 ba 37 d6 44 58 38 22 2e 88 37
       3.0168976e-05 2.2278049e-05 5.156252e-05 1.6233946e-05
000260 00 00 00 00 00 00 00 00 00 00 00 00 00 00 00 00
       0.0 0.0 0.0 0.0
000270 a4 d2 57 37 b9 66 70 37 6f b5 4c 37 b9 4b af 36
       1.2864042e-05 1.4329032e-05 1.2201591e-05 5.2242217e-06
000280 d8 ec 99 36 8e 10 00 37 90 7f d9 36 1a f0 1d 37
       4.5873276e-06 7.633249e-06 6.481954e-06 9.413832e-06
000290 b7 fa 92 39 c7 06 6a 39 92 75 7b 39 7b 7b 4a 39
       0.00028034087 0.00022318504 0.00023981024 0.00019310221
0002a0 00 00 00 00 00 00 00 00 00 00 00 00 00 00 00 00
       0.0 0.0 0.0 0.0
0002b0 79 90 23 39 19 8a 17 39 6c 49 1e 39 b9 f1 d9 38
       0.00015598712 0.00014451928 0.00015095406 0.00010392391
0002c0 60 ca 94 35 6b 40 90 33 d9 fb 7a 35 c5 75 07 36
       1.1085758e-06 6.71724e-08 9.3498744e-07 2.0185119e-06
0002d0 e8 5b 1a 38 9a 9e 8d 38 54 42 19 38 db b6 6d 37
       3.6802056e-05 6.752946e-05 3.6539815e-05 1.4168875e-05
0002e0 00 00 00 00 00 00 00 00 00 00 00 00 00 00 00 00
       0.0 0.0 0.0 0.0
0002f0 a6 40 8a 37 d8 ce 32 38 ac a0 a7 37 3e 25 90 37
       1.6480986e-05 4.2631145e-05 1.998277e-05 1.718348e-05
000300 ad 11 4c 38 dd 31 61 38 a5 ce 07 38 0a 9e 56 38
       4.8653852e-05 5.369062e-05 3.237896e-05 5.116876e-05
000310 2a 35 03 3b 9e 9a ee 3a 4b 43 14 3b cf aa fc 3a
       0.0020020702 0.0018204038 0.0022623118 0.0019276979
000320 00 00 00 00 00 00 00 00 00 00 00 00 00 00 00 00
       0.0 0.0 0.0 0.0
000330 ac fd 8f 3a d2 7f 91 3a d1 21 b2 3a a7 cd 88 3a
       0.0010985634 0.0011100715 0.00135904 0.0010437266
000340 94 de c2 35 b1 a7 ec 35 ae 75 72 33 7e 7b 02 34
       1.4518905e-06 1.7632175e-06 5.6452045e-08 1.215212e-07
000350 12 bd 3e 38 af 83 24 38 f6 18 ea 38 71 a1 8f 38
       4.5475615e-05 3.9223287e-05 0.00011162639 6.848842e-05
000360 00 00 00 00 00 00 00 00 00 00 00 00 00 00 00 00
       0.0 0.0 0.0 0.0
000370 4f 71 cc 37 56 9e e9 37 5d 77 16 38 ee 00 84 38
       2.4371458e-05 2.7849495e-05 3.5873953e-05 6.294424e-05
000380 68 85 58 37 59 f3 08 37 be 55 7f 37 62 37 5c 37
       1.2905664e-05 8.1628905e-06 1.5219148e-05 1.3125917e-05
000390 b6 f7 e0 39 93 5a 04 3a f8 4b b6 39 13 91 ef 39
       0.00042909168 0.0005048897 0.00034770346 0.0004569372
0003a0 00 00 00 00 00 00 00 00 00 00 00 00 00 00 00 00
       0.0 0.0 0.0 0.0
0003b0 1a fa 8e 39 e2 7a 94 39 a6 6a 87 39 e1 09 66 39
       0.0002727069 0.00028320315 0.00025828666 0.0002193819
0003c0 7b 56 4f 36 4d 34 64 37 50 c8 47 36 99 1f 02 36
       3.0895742e-06 1.3602036e-05 2.9769908e-06 1.9389902e-06
0003d0 43 30 ba 38 79 33 cd 35 45 69 bf 38 7e c3 08 39
       8.8781606e-05 1.5288671e-06 9.127198e-05 0.00013042797
0003e0 00 00 00 00 00 00 00 00 00 00 00 00 00 00 00 00
       0.0 0.0 0.0 0.0
0003f0 0d 10 5b 38 18 41 6c 38 fe 13 4b 38 f0 f2 6d 38
       5.2228617e-05 5.6327408e-05 4.841759e-05 5.6731456e-05

exp_avg f4 [16]
000000 ab ff 08 37 04 00 00 00 ca b9 f9 b8 54 2b 36 39
       8.165759e-06 6e-45 -0.00011907851 0.00017373014
000010 a2 eb ac b8 04 00 00 00 8a 72 9b 39 04 00 00 00
       -8.245489e-05 6e-45 0.00029649242 6e-45
000020 82 4f a2 37 e6 d9 b2 b7 08 b4 3d 39 91 59 cc 38
       1.9348929e-05 -2.132072e-05 0.00018091511 9.744161e-05
000030 b7 01 a9 b9 b6 dc ef 36 86 20 49 ba 11 90 fe b8
       -0.0003223547 7.148449e-06 -0.0007672388 -0.00012138498

exp_avg_sq f4 [16]
000000 6c 94 87 38 f4 01 00 00 af 04 f7 37 72 a6 02 39
       6.4649474e-05 7e-43 2.9446875e-05 0.00012459772
000010 0a e2 95 37 f4 01 00 00 8f 9c 81 39 f4 01 00 00
       1.7867442e-05 7e-43 0.00024721443 7e-43
000020 43 94 89 38 0d c4 72 37 83 3e 12 39 51 e7 ad 37
       6.560285e-05 1.4469971e-05 0.00013946932 2.0730922e-05
000030 d6 1d 98 3a a5 c7 f1 37 40 2f 88 39 f0 bc 7d 38
       0.0011605571 2.8822406e-05 0.00025975145 6.0495862e-05

exp_avg f4 [4, 16]
000000 8f 34 aa b6 04 00 00 80 5b 05 70 b6 db fa 49 37
       -5.0725134e-06 -6e-45 -3.5765904e-06 1.203894e-05
000010 3a 63 5d b5 04 00 00 00 30 2a 5f 37 04 00 00 00
       -8.247331e-07 6e-45 1.3301658e-05 6e-45
000020 12 f2 24 b8 b2 22 ce 37 30 a1 12 b7 0d 96 95 37
       -3.9326093e-05 2.457327e-05 -8.7398075e-06 1.7832057e-05
000030 cf ec 89 38 62 e9 b5 35 b1 ef d1 37 d9 f0 ae b7
       6.576778e-05 1.3553474e-06 2.5026357e-05 -2.085457e-05
000040 8e 26 de b9 04 00 00 00 29 cc 7e b9 73 c6 15 ba
       -0.00042371865 6e-45 -0.00024299383 -0.000571347
000050 3c a8 79 b9 04 00 00 80 26 1f a1 ba 04 00 00 00
       -0.00023809163 -6e-45 -0.0012292608 6e-45
000060 3a 9b 00 ba 3b 4c 8b b9 73 f2 5b ba f6 6e 7d b9
       -0.0004905943 -0.00026568942 -0.0008390315 -0.00024169296
000070 27 d6 08 bb f2 14 1a b9 ac 0c ac ba c3 20 da b9
       -0.0020879598 -0.00014694387 -0.0013126335 -0.0004160461
000080 f9 e3 ee 36 04 00 00 00 5b 8b f3 37 7f b1 f3 38
       7.1194922e-06 6e-45 2.903275e-05 0.00011620204
000090 4a 1f 93 37 04 00 00 80 bf 1d 47 39 04 00 00 00
       1.7538336e-05 -6e-45 0.000189892 6e-45
0000a0 92 26 56 38 26 e7 98 38 63 65 03 39 39 24 b0 38
       5.1057497e-05 7.2909796e-05 0.00012530903 8.399081e-05
0000b0 a5 69 94 39 b3 99 a6 37 27 39 32 39 b8 f6 86 38
       0.0002830747 1.9860314e-05 0.00016996694 6.435573e-05
0000c0 81 1c ae b9 04 00 00 00 b4 32 67 b9 45 7a fb b9
       -0.00033209103 6e-45 -0.00022048765 -0.0004796555
0000d0 7b 03 6a b9 04 00 00 80 90 a6 7b ba 04 00 00 00
       -0.00022317276 -6e-45 -0.000959971 6e-45
0000e0 d5 a5 e7 b9 3f 4e 58 b9 35 7c 3c ba 71 21 49 b9
       -0.00044183308 -0.00020628514 -0.0007190139 -0.00019181312
0000f0 be e9 cc ba 0d 3c fd b8 57 ab 7f ba 36 97 ab b9
       -0.0015633625 -0.000120751654 -0.00097530097 -0.00032728323

exp_avg_sq f4 [4, 16]
000000 0a f3 ce 39 f4 01 00 00 7b 54 b7 38 72 8c ea 39
       0.0003947246 7e-43 8.741856e-05 0.00044736598
000010 bc 40 ca 38 f4 01 00 00 ab 60 30 3b f4 01 00 00
       9.644168e-05 7e-43 0.0026913087 7e-43
000020 a0 18 c2 39 c7 62 fa 38 54 87 8f 3a bc d2 02 39
       0.0003702091 0.00011939328 0.0010950365 0.00012476271
000030 fc ad e3 3b ae 8a 0d 38 3f d5 30 3b 62 37 71 39
       0.006948231 3.3746175e-05 0.0026982573 0.00023004183
000040 a6 3f 00 3a f4 01 00 00 93 cc e0 38 20 d1 0d 3a
       0.0004892297 7e-43 0.00010719257 0.0005409885
000050 f7 a7 17 39 f4 01 00 00 84 2c 64 3b f4 01 00 00
       0.00014463054 7e-43 0.0034816572 7e-43
000060 5e 78 f2 39 21 04 10 39 4e 91 c5 3a ec 0e 12 39
       0.00046247517 0.00013734448 0.0015073211 0.00013929204
000070 0f 25 1c 3c 45 6b 2e 38 ff fe 7a 3b b7 bf 8d 39
       0.00953032 4.1584735e-05 0.0038298962 0.00027036454
000080 6b 87 c5 39 f4 01 00 00 00 b1 e8 38 94 1e 0d 3a
       0.00037675662 7e-43 0.00011095591 0.00053832796
000090 32 fa b3 38 f4 01 00 00 fd da 0e 3b f4 01 00 00
       8.581988e-05 7e-43 0.0021798008 7e-43
0000a0 de ff c5 39 a3 4c d1 38 0b b0 92 3a 6c b1 ae 38
       0.00037765404 9.980171e-05 0.0011191381 8.330014e-05
0000b0 c8 2d e2 3b 00 71 57 38 cc 44 16 3b 9b 8c 80 39
       0.00690243 5.1365234e-05 0.002292919 0.00024518822
0000c0 a9 6d ef 39 f4 01 00 00 4a c4 1f 39 c2 ab 42 3a
       0.00045667336 7e-43 0.00015236545 0.00074261066
0000d0 84 db 0c 39 f4 01 00 00 09 59 41 3b f4 01 00 00
       0.00013433216 7e-43 0.0029502532 7e-43
0000e0 71 d1 04 3a 7f 9f f7 38 6f a7 d0 3a c3 34 e2 38
       0.00050666096 0.00011807586 0.001591904 0.000107863474
0000f0 b5 2b 1c 3c 84 91 64 38 12 57 5f 3b ae dc ac 39
       0.009531905 5.4494958e-05 0.0034078998 0.00032970816

exp_avg f4 [4]
000000 fd e1 d6 37 bd b7 9c b9 9d 4e 58 38 96 92 74 b9
       2.5616022e-05 -0.00029891534 5.1571627e-05 -0.00023324261

exp_avg_sq f4 [4]
000000 0f a8 1a 39 e1 bd 52 39 c7 59 12 39 a5 25 51 39
       0.00014749191 0.00020097896 0.0001395709 0.00019945817
